PDE Inference/pickle_data/Greedy_fkpp_1d_param_sweep_18_05pts_01__ann_deg_2.npz (npz, 17086 bytes, 1 tensors)

xi_list f8 [100, 10, 1]
0.0 0.13894418808022205 -11.744089459471446 11.755580401111722 0.0 0.0 -0.2545020365562305 0.0
0.5400453911130094 0.0 0.0 0.14202851069763056 -11.000870271346479 11.015412434585421 0.0 0.0
-0.27931963210317345 0.0 0.6403914803408493 0.0 0.0 0.13646434112891603 -11.943564382459039 11.962037685022153
0.0 0.0 -0.22590615506477452 0.0 0.5425073867533127 0.0 0.0 0.14628964043968223
-11.49222331216925 11.507692134832737 0.0 0.0 -0.25994902649591545 0.0 0.5810797712243105 0.0
0.0 0.14524162256353346 -11.602880042499182 11.617816393987704 0.0 0.0 -0.2520666462836365 0.0
0.5267415500858479 0.0 0.0 0.13436539901577366 -11.515355668025627 11.528393275477093 0.0 0.0
-0.24395455310682568 0.0 0.5819698136745672 0.0 0.0 0.1360061604559698 -11.410718995162783 11.425575369082118
0.0 0.0 -0.2440299717993808 0.0 0.6034260296175 0.0 0.0 0.13729441094674902
-11.415276603601434 11.431487025764142 0.0 0.0 -0.24351743908508983 0.0 0.597219890073966 0.0
0.0 0.13934172678028386 -11.334861901606521 11.350575655525754 0.0 0.0 -0.260822986226084 0.0
0.5760364462623071 0.0 0.0 0.13660836660910014 -11.120324412050207 11.13313446015231 0.0 0.0
-0.2775111696346526 0.0 0.6289488640996781 0.0 0.0 0.1454511053254468 -12.006533882854546 12.021071831364619
0.0 0.0 -0.24553090015440393 0.0 0.5178188972369635 0.0 0.0 0.13397399605358157
-11.204852569839055 11.2208749640735 0.0 0.0 -0.25616357298047276 0.0 0.6232614479614892 0.0
0.0 0.14955297388857255 -10.866650413612174 10.881005691058563 0.0 0.0 -0.3060855716113524 0.0
0.6400946022205586 0.0 0.0 0.13651270183967437 -11.374041840244185 11.391279293787775 0.0 0.0
-0.23909464239743272 0.0 0.6107661957207372 0.0 0.0 0.1415631874109014 -11.280021005242116 11.295969757394634
0.0 0.0 -0.2534331141944586 0.0 0.5970796003097544 0.0 0.0 0.13826169788882395
-11.634290433175401 11.6530220862991 0.0 0.0 -0.23600680998302614 0.0 0.569574938217032 0.0
0.0 0.14428338521271855 -11.242707658242116 11.257134188831515 0.0 0.0 -0.2684590480815734 0.0
0.5905117695364044 0.0 0.0 0.1387011251695982 -11.47123861533882 11.486887750968826 0.0 0.0
-0.23994450443006787 0.0 0.57358735139532 0.0 0.0 0.13748051989169502 -11.301844443357718 11.321548575555157
0.0 0.0 -0.25229068845621416 0.0 0.5998989715197307 0.0 0.0 0.1359648651734327
-11.45148289029638 11.46484296311497 0.0 0.0 -0.24261739891342415 0.0 0.5804120903061535 0.0
0.0 0.14045660705300517 -11.233044406655585 11.248424819870783 0.0 0.0 -0.26908061973286035 0.0
0.6019048862851191 0.0 0.0 0.13514362772414726 -11.176039663279715 11.19307944771168 0.0 0.0
-0.24571916970676977 0.0 0.6310778723133573 0.0 0.0 0.13033329287788728 -11.707520010759666 11.722266658245632
0.0 0.0 -0.23521407569918207 0.0 0.533499163102605 0.0 0.0 0.155056889217671
-10.730120002265942 10.744475044760426 0.0 0.0 -0.30860611933973825 0.0 0.6339055996648542 0.0
0.0 0.14135260646870482 -11.643275267806189 11.659692077004934 0.0 0.0 -0.2541329417682503 0.0
0.5480764450461919 0.0 0.0 0.13250538997111683 -11.930532334515135 11.945821480224465 0.0 0.0
00000000: 0000 0000 0000 0000 c10c e353 ecc8 c13f
00000010: d474 2b4b f97c 27c0 fc8b 306f db82 2740
00000020: 0000 0000 0000 0000 0000 0000 0000 0000
00000030: e08f f1e8 c249 d0bf 0000 0000 0000 0000
00000040: eef2 a545 0d48 e13f 0000 0000 0000 0000
00000050: 0000 0000 0000 0000 5ce0 4580 fd2d c23f
00000060: 8cf1 7511 7200 26c0 04fe 7c23 e407 2640
00000070: 0000 0000 0000 0000 0000 0000 0000 0000
00000080: 70e3 4073 5fe0 d1bf 0000 0000 0000 0000
00000090: 626e 1646 167e e43f 0000 0000 0000 0000
000000a0: 0000 0000 0000 0000 5404 1cdd a977 c13f
000000b0: fda9 e8de 1ae3 27c0 2061 1534 90ec 2740
000000c0: 0000 0000 0000 0000 0000 0000 0000 0000
000000d0: a0f1 fb2d 7eea ccbf 0000 0000 0000 0000
000000e0: 7134 7e73 385c e13f 0000 0000 0000 0000
000000f0: 0000 0000 0000 0000 e64c b772 9eb9 c23f
00000100: 0331 a8b1 04fc 26c0 0816 3739 f003 2740
00000110: 0000 0000 0000 0000 0000 0000 0000 0000
00000120: e053 db3d 01a3 d0bf 0000 0000 0000 0000
00000130: 84d1 b89a 3498 e23f 0000 0000 0000 0000
00000140: 0000 0000 0000 0000 3cd4 7609 4797 c23f
00000150: e1e3 63b1 ac34 27c0 3d38 2e6e 523c 2740
00000160: 0000 0000 0000 0000 0000 0000 0000 0000
00000170: f0d6 8c24 dc21 d0bf 0000 0000 0000 0000
00000180: 9c04 6218 11db e03f 0000 0000 0000 0000
00000190: 0000 0000 0000 0000 724d 3ea9 e232 c13f
000001a0: e4f4 b7b2 dc07 27c0 6c33 3b90 890e 2740
000001b0: 0000 0000 0000 0000 0000 0000 0000 0000
000001c0: 20ed a61d e739 cfbf 0000 0000 0000 0000
000001d0: 34ba 9f28 7f9f e23f 0000 0000 0000 0000
000001e0: 0000 0000 0000 0000 ec40 9b5d a668 c13f
000001f0: e923 98c2 49d2 26c0 b461 c803 e5d9 2640
00000200: 0000 0000 0000 0000 0000 0000 0000 0000
00000210: 60a2 0fc6 5f3c cfbf 0000 0000 0000 0000
00000220: ae64 d81a 444f e33f 0000 0000 0000 0000
00000230: 0000 0000 0000 0000 b54d 78fe dc92 c13f
00000240: 3486 8e22 9fd4 26c0 509c 10de ebdc 2640
00000250: 0000 0000 0000 0000 0000 0000 0000 0000
00000260: 2025 7056 942b cfbf 0000 0000 0000 0000
00000270: c46d 0ce3 6c1c e33f 0000 0000 0000 0000
00000280: 0000 0000 0000 0000 7fa7 be1f f3d5 c13f
00000290: 1b27 e804 73ab 26c0 8583 fea6 7eb3 2640
000002a0: 0000 0000 0000 0000 0000 0000 0000 0000
000002b0: b0b5 f8e4 52b1 d0bf 0000 0000 0000 0000
000002c0: 7e05 40fc e36e e23f 0000 0000 0000 0000
000002d0: 0000 0000 0000 0000 9c18 7909 627c c13f
000002e0: 0755 4d29 9b3d 26c0 4aa6 3033 2a44 2640
000002f0: 0000 0000 0000 0000 0000 0000 0000 0000
00000300: 30c1 7635 bec2 d1bf 0000 0000 0000 0000
00000310: 4e43 455e 5920 e43f 0000 0000 0000 0000
00000320: 0000 0000 0000 0000 a819 454e 249e c23f
00000330: 335a ba68 5803 28c0 de27 55ed c90a 2840
00000340: 0000 0000 0000 0000 0000 0000 0000 0000
00000350: a009 2979 8e6d cfbf 0000 0000 0000 0000
00000360: fc45 9cef f891 e03f 0000 0000 0000 0000
00000370: 0000 0000 0000 0000 b243 c855 0f26 c13f
00000380: aceb 9f6f e268 26c0 d766 f685 1671 2640
00000390: 0000 0000 0000 0000 0000 0000 0000 0000
000003a0: 402b 18e6 fb64 d0bf 0000 0000 0000 0000
000003b0: 3d45 fbfd c1f1 e33f 0000 0000 0000 0000
000003c0: 0000 0000 0000 0000 a77b ef45 8d24 c33f
000003d0: ee0e 5f9a b9bb 25c0 715f 8d2d 13c3 2540
000003e0: 0000 0000 0000 0000 0000 0000 0000 0000
000003f0: 5049 f6ef e796 d3bf 0000 0000 0000 0000
00000400: 0b45 dcac a77b e43f 0000 0000 0000 0000
00000410: 0000 0000 0000 0000 89eb f18a 3f79 c13f
00000420: 6e5e 7e69 82bf 26c0 48d7 74c2 55c8 2640
00000430: 0000 0000 0000 0000 0000 0000 0000 0000
00000440: 0076 df3a a79a cebf 0000 0000 0000 0000
00000450: cfee 838c 658b e33f 0000 0000 0000 0000
00000460: 0000 0000 0000 0000 daa8 1f16 be1e c23f
00000470: 766a c7e9 5e8f 26c0 e23a 1959 8997 2640
00000480: 0000 0000 0000 0000 0000 0000 0000 0000
00000490: 9012 4c86 3f38 d0bf 0000 0000 0000 0000
000004a0: 7d0d 8ead 461b e33f 0000 0000 0000 0000
000004b0: 0000 0000 0000 0000 3d68 5c2f 8fb2 c13f
000004c0: dc4e 35b7 c144 27c0 ce70 30e9 584e 2740
000004d0: 0000 0000 0000 0000 0000 0000 0000 0000
000004e0: 4054 419d 7835 cebf 0000 0000 0000 0000
000004f0: 8d6d 8838 f539 e23f 0000 0000 0000 0000
00000500: 0000 0000 0000 0000 4822 6cc2 e077 c23f
00000510: fb46 9d2d 447c 26c0 006e a717 a783 2640
00000520: 0000 0000 0000 0000 0000 0000 0000 0000
00000530: 70d7 f4db 6e2e d1bf 0000 0000 0000 0000
00000540: 76fb 41f0 78e5 e23f 0000 0000 0000 0000
00000550: 0000 0000 0000 0000 38cb 425e f5c0 c13f
00000560: 30fc 1230 46f1 26c0 dc77 ee59 49f9 2640
00000570: 0000 0000 0000 0000 0000 0000 0000 0000
00000580: a0e7 b063 80b6 cebf 0000 0000 0000 0000
00000590: 928c 74dc d35a e23f 0000 0000 0000 0000
000005a0: 0000 0000 0000 0000 decd 6230 f698 c13f
000005b0: c566 d95a 8b9a 26c0 692b d003 a2a4 2640
000005c0: 0000 0000 0000 0000 0000 0000 0000 0000
000005d0: 104e 00d8 8725 d0bf 0000 0000 0000 0000
000005e0: d699 f253 5f32 e33f 0000 0000 0000 0000
000005f0: 0000 0000 0000 0000 ba97 a9f4 4b67 c13f
00000600: 920d f1c3 28e7 26c0 85b5 98e5 ffed 2640
00000610: 0000 0000 0000 0000 0000 0000 0000 0000
00000620: 000a e340 160e cfbf 0000 0000 0000 0000
00000630: 772c 4260 bc92 e23f 0000 0000 0000 0000
00000640: 0000 0000 0000 0000 325f e66a 7bfa c13f
00000650: f333 b298 5177 26c0 2bb8 b989 317f 2640
00000660: 0000 0000 0000 0000 0000 0000 0000 0000
00000670: f05c 6feb 9d38 d1bf 0000 0000 0000 0000
00000680: beb5 3c09 ce42 e33f 0000 0000 0000 0000
00000690: 0000 0000 0000 0000 f543 abea 624c c13f
000006a0: a32b e9de 215a 26c0 1fe7 324f db62 2640
000006b0: 0000 0000 0000 0000 0000 0000 0000 0000
000006c0: 6007 f2ca b973 cfbf 0000 0000 0000 0000
000006d0: 9315 da38 ca31 e43f 0000 0000 0000 0000
000006e0: 0000 0000 0000 0000 37c9 3ee7 c2ae c03f
000006f0: e8f4 1610 406a 27c0 f94f 78ef cc71 2740
00000700: 0000 0000 0000 0000 0000 0000 0000 0000
00000710: e0ea 57ad 7e1b cebf 0000 0000 0000 0000
00000720: 8702 3fd6 6c12 e13f 0000 0000 0000 0000
00000730: 0000 0000 0000 0000 5bcd 1a76 e7d8 c33f
00000740: 7cc6 f749 d275 25c0 4bde 43d5 2b7d 2540
00000750: 0000 0000 0000 0000 0000 0000 0000 0000
00000760: b037 7ae1 33c0 d3bf 0000 0000 0000 0000
00000770: 68fa 6965 f448 e43f 0000 0000 0000 0000
00000780: 0000 0000 0000 0000 9b64 fe9a d717 c23f
00000790: 401b 3b60 5b49 27c0 4055 f028 c351 2740
000007a0: 0000 0000 0000 0000 0000 0000 0000 0000
000007b0: 30c7 6ed0 b643 d0bf 0000 0000 0000 0000
000007c0: 80cd e59c d789 e13f 0000 0000 0000 0000
000007d0: 0000 0000 0000 0000 401e 3cc6 eff5 c03f
000007e0: e039 f1bb 6edc 27c0 37d6 8ab6 42e4 2740
000007f0: 0000 0000 0000 0000 0000 0000 0000 0000
